…
  dist: False
  rank: 0
  world_size: 1

2024-08-30 20:50:21,693 INFO: Dataset Dataset_PairedImage - TrainSet is created.
2024-08-30 20:50:21,693 INFO: Training statistics:
	Number of train images: 485
	Dataset enlarge ratio: 1
	Batch size per gpu: 8
	World size (gpu number): 1
	Require iter number per epoch: 61
	Total epochs: 1000
2024-08-30 20:50:21,693 INFO: Dataset Dataset_PairedImage - ValSet is created.
2024-08-30 20:50:21,693 INFO: Number of val images/folders in ValSet: 15
2024-08-30 20:50:22,143 INFO: Network: WaveNet, with parameters: 14,412,930
2024-08-30 20:50:22,143 INFO: WaveNet(
  (conv_1): Conv2d(3, 128, kernel_size=(3, 3), stride=(1, 1), padding=(1, 1), bias=False)
  (encoder): ModuleList(
    (0): Sequential(
      (0): WTB(
        (wfb): WFB(
          (norm): LayerNorm()
          (fcs): ModuleList(
            (0-8): 9 x Conv2d(128, 128, kernel_size=(1, 1), stride=(1, 1), bias=False)
          )
          (f3): Conv2d(128, 128, kernel_size=(3, 3), stride=(1, 1), padding=(1, 1), groups=32, bias=False)
          (f5): Conv2d(128, 128, kernel_size=(5, 5), stride=(1, 1), padding=(2, 2), groups=64, bias=False)
          (f7): Conv2d(128, 128, kernel_size=(7, 7), stride=(1, 1), padding=(3, 3), groups=128, bias=False)
          (reweight_u): Mlp(
            (act): PReLU(num_parameters=1)
            (drop): Dropout(p=0.0, inplace=False)
            (fc1): Conv2d(128, 32, kernel_size=(1, 1), stride=(1, 1))
            (fc2): Conv2d(32, 256, kernel_size=(1, 1), stride=(1, 1))
          )
          (reweight_v): Mlp(
            (act): PReLU(num_parameters=1)
            (drop): Dropout(p=0.0, inplace=False)
            (fc1): Conv2d(128, 32, kernel_size=(1, 1), stride=(1, 1))
            (fc2): Conv2d(32, 256, kernel_size=(1, 1), stride=(1, 1))
          )
          (reweight_w): Mlp(
            (act): PReLU(num_parameters=1)
            (drop): Dropout(p=0.0, inplace=False)
            (fc1): Conv2d(128, 32, kernel_size=(1, 1), stride=(1, 1))
            (fc2): Conv2d(32, 256, kernel_size=(1, 1), stride=(1, 1))
          )
          (proj): Conv2d(128, 128, kernel_size=(1, 1), stride=(1, 1))
          (proj_drop): Dropout(p=0.0, inplace=False)
        )
        (drop_path): Identity()
        (norm2): LayerNorm()
        (mlp): Mlp(
          (act): PReLU(num_parameters=1)
          (drop): Dropout(p=0.0, inplace=False)
          (fc1): Conv2d(128, 256, kernel_size=(1, 1), stride=(1, 1))
          (fc2): Conv2d(256, 128, kernel_size=(1, 1), stride=(1, 1))
        )
      )
      (1): WTB(
        (wfb): WFB(
          (norm): LayerNorm()
          (fcs): ModuleList(
            (0-8): 9 x Conv2d(128, 128, kernel_size=(1, 1), stride=(1, 1), bias=False)
          )
          (f3): Conv2d(128, 128, kernel_size=(3, 3), stride=(1, 1), padding=(1, 1), groups=32, bias=False)
          (f5): Conv2d(128, 128, kernel_size=(5, 5), stride=(1, 1), padding=(2, 2), groups=64, bias=False)
          (f7): Conv2d(128, 128, kernel_size=(7, 7), stride=(1, 1), padding=(3, 3), groups=128, bias=False)
          (reweight_u): Mlp(
            (act): PReLU(num_parameters=1)
            (drop): Dropout(p=0.0, inplace=False)
            (fc1): Conv2d(128, 32, kernel_size=(1, 1), stride=(1, 1))
            (fc2): Conv2d(32, 256, kernel_size=(1, 1), stride=(1, 1))
          )
          (reweight_v): Mlp(
            (act): PReLU(num_parameters=1)
            (drop): Dropout(p=0.0, inplace=False)
            (fc1): Conv2d(128, 32, kernel_size=(1, 1), stride=(1, 1))
            (fc2): Conv2d(32, 256, kernel_size=(1, 1), stride=(1, 1))
          )
          (reweight_w): Mlp(
            (act): PReLU(num_parameters=1)
            (drop): Dropout(p=0.0, inplace=False)
            (fc1): Conv2d(128, 32, kernel_size=(1, 1), stride=(1, 1))
            (fc2): Conv2d(32, 256, kernel_size=(1, 1), stride=(1, 1))
          )
          (proj): Conv2d(128, 128, kernel_size=(1, 1), stride=(1, 1))
          (proj_drop): Dropout(p=0.0, inplace=False)
        )
        (drop_path): Identity()
        (norm2): LayerNorm()
        (mlp): Mlp(
          (act): PReLU(num_parameters=1)
          (drop): Dropout(p=0.0, inplace=False)
          (fc1): Conv2d(128, 256, kernel_size=(1, 1), stride=(1, 1))
          (fc2): Conv2d(256, 128, kernel_size=(1, 1), stride=(1, 1))
        )
      )
    )
    (1): Downsample(
      (norm): LayerNorm()
      (down): Sequential(
        (0): Conv2d(128, 192, kernel_size=(3, 3), stride=(1, 1), padding=(1, 1), bias=False)
        (1): UpsamplingBilinear2d(scale_factor=0.5, mode='bilinear')
      )
    )
    (2): Sequential(
      (0): WTB(
        (wfb): WFB(
          (norm): LayerNorm()
          (fcs): ModuleList(
            (0-8): 9 x Conv2d(192, 192, kernel_size=(1, 1), stride=(1, 1), bias=False)
          )
          (f3): Conv2d(192, 192, kernel_size=(3, 3), stride=(1, 1), padding=(1, 1), groups=48, bias=False)
          (f5): Conv2d(192, 192, kernel_size=(5, 5), stride=(1, 1), padding=(2, 2), groups=96, bias=False)
          (f7): Conv2d(192, 192, kernel_size=(7, 7), stride=(1, 1), padding=(3, 3), groups=192, bias=False)
          (reweight_u): Mlp(
            (act): PReLU(num_parameters=1)
            (drop): Dropout(p=0.0, inplace=False)
            (fc1): Conv2d(192, 48, kernel_size=(1, 1), stride=(1, 1))
            (fc2): Conv2d(48, 384, kernel_size=(1, 1), stride=(1, 1))
          )
          (reweight_v): Mlp(
            (act): PReLU(num_parameters=1)
            (drop): Dropout(p=0.0, inplace=False)
            (fc1): Conv2d(192, 48, kernel_size=(1, 1), stride=(1, 1))
            (fc2): Conv2d(48, 384, kernel_size=(1, 1), stride=(1, 1))
          )
          (reweight_w): Mlp(
            (act): PReLU(num_parameters=1)
            (drop): Dropout(p=0.0, inplace=False)
            (fc1): Conv2d(192, 48, kernel_size=(1, 1), stride=(1, 1))
            (fc2): Conv2d(48, 384, kernel_size=(1, 1), stride=(1, 1))
          )
          (proj): Conv2d(192, 192, kernel_size=(1, 1), stride=(1, 1))
          (proj_drop): Dropout(p=0.0, inplace=False)
        )
        (drop_path): Identity()
        (norm2): LayerNorm()
        (mlp): Mlp(
          (act): PReLU(num_parameters=1)
          (drop): Dropout(p=0.0, inplace=False)
          (fc1): Conv2d(192, 384, kernel_size=(1, 1), stride=(1, 1))
          (fc2): Conv2d(384, 192, kernel_size=(1, 1), stride=(1, 1))
        )
      )
      (1): WTB(
        (wfb): WFB(
          (norm): LayerNorm()
          (fcs): ModuleList(
            (0-8): 9 x Conv2d(192, 192, kernel_size=(1, 1), stride=(1, 1), bias=False)
          )
          (f3): Conv2d(192, 192, kernel_size=(3, 3), stride=(1, 1), padding=(1, 1), groups=48, bias=False)
          (f5): Conv2d(192, 192, kernel_size=(5, 5), stride=(1, 1), padding=(2, 2), groups=96, bias=False)
          (f7): Conv2d(192, 192, kernel_size=(7, 7), stride=(1, 1), padding=(3, 3), groups=192, bias=False)
          (reweight_u): Mlp(
            (act): PReLU(num_parameters=1)
            (drop): Dropout(p=0.0, inplace=False)
            (fc1): Conv2d(192, 48, kernel_size=(1, 1), stride=(1, 1))
            (fc2): Conv2d(48, 384, kernel_size=(1, 1), stride=(1, 1))
          )
          (reweight_v): Mlp(
            (act): PReLU(num_parameters=1)
            (drop): Dropout(p=0.0, inplace=False)
            (fc1): Conv2d(192, 48, kernel_size=(1, 1), stride=(1, 1))
            (fc2): Conv2d(48, 384, kernel_size=(1, 1), stride=(1, 1))
          )
          (reweight_w): Mlp(
            (act): PReLU(num_parameters=1)
            (drop): Dropout(p=0.0, inplace=False)
            (fc1): Conv2d(192, 48, kernel_size=(1, 1), stride=(1, 1))
            (fc2): Conv2d(48, 384, kernel_size=(1, 1), stride=(1, 1))
          )
          (proj): Conv2d(192, 192, kernel_size=(1, 1), stride=(1, 1))
          (proj_drop): Dropout(p=0.0, inplace=False)
        )
        (drop_path): Identity()
        (norm2): LayerNorm()
        (mlp): Mlp(
          (act): PReLU(num_parameters=1)
          (drop): Dropout(p=0.0, inplace=False)
          (fc1): Conv2d(192, 384, kernel_size=(1, 1), stride=(1, 1))
          (fc2): Conv2d(384, 192, kernel_size=(1, 1), stride=(1, 1))
        )
      )
    )
    (3): Downsample(
      (norm): LayerNorm()
      (down): Sequential(
        (0): Conv2d(192, 256, kernel_size=(3, 3), stride=(1, 1), padding=(1, 1), bias=False)
        (1): UpsamplingBilinear2d(scale_factor=0.5, mode='bilinear')
      )
    )
    (4): Sequential(
      (0): WTB(
        (wfb): WFB(
          (norm): LayerNorm()
          (fcs): ModuleList(
            (0-8): 9 x Conv2d(256, 256, kernel_size=(1, 1), stride=(1, 1), bias=False)
          )
          (f3): Conv2d(256, 256, kernel_size=(3, 3), stride=(1, 1), padding=(1, 1), groups=64, bias=False)
          (f5): Conv2d(256, 256, kernel_size=(5, 5), stride=(1, 1), padding=(2, 2), groups=128, bias=False)
          (f7): Conv2d(256, 256, kernel_size=(7, 7), stride=(1, 1), padding=(3, 3), groups=256, bias=False)
          (reweight_u): Mlp(
            (act): PReLU(num_parameters=1)
            (drop): Dropout(p=0.0, inplace=False)
            (fc1): Conv2d(256, 64, kernel_size=(1, 1), stride=(1, 1))
            (fc2): Conv2d(64, 512, kernel_size=(1, 1), stride=(1, 1))
          )
          (reweight_v): Mlp(
            (act): PReLU(num_parameters=1)
            (drop): Dropout(p=0.0, inplace=False)
            (fc1): Conv2d(256, 64, kernel_size=(1, 1), stride=(1, 1))
            (fc2): Conv2d(64, 512, kernel_size=(1, 1), stride=(1, 1))
          )
          (reweight_w): Mlp(
            (act): PReLU(num_parameters=1)
            (drop): Dropout(p=0.0, inplace=False)
            (fc1): Conv2d(256, 64, kernel_size=(1, 1), stride=(1, 1))
            (fc2): Conv2d(64, 512, kernel_size=(1, 1), stride=(1, 1))
          )
          (proj): Conv2d(256, 256, kernel_size=(1, 1), stride=(1, 1))
          (proj_drop): Dropout(p=0.0, inplace=False)
        )
        (drop_path): Identity()
        (norm2): LayerNorm()
        (mlp): Mlp(
          (act): PReLU(num_parameters=1)
          (drop): Dropout(p=0.0, inplace=False)
          (fc1): Conv2d(256, 512, kernel_size=(1, 1), stride=(1, 1))
          (fc2): Conv2d(512, 256, kernel_size=(1, 1), stride=(1, 1))
        )
      )
      (1): WTB(
        (wfb): WFB(
          (norm): LayerNorm()
          (fcs): ModuleList(
            (0-8): 9 x Conv2d(256, 256, kernel_size=(1, 1), stride=(1, 1), bias=False)
          )
          (f3): Conv2d(256, 256, kernel_size=(3, 3), stride=(1, 1), padding=(1, 1), groups=64, bias=False)
          (f5): Conv2d(256, 256, kernel_size=(5, 5), stride=(1, 1), padding=(2, 2), groups=128, bias=False)
          (f7): Conv2d(256, 256, kernel_size=(7, 7), stride=(1, 1), padding=(3, 3), groups=256, bias=False)
          (reweight_u): Mlp(
            (act): PReLU(num_parameters=1)
            (drop): Dropout(p=0.0, inplace=False)
            (fc1): Conv2d(256, 64, kernel_size=(1, 1), stride=(1, 1))
            (fc2): Conv2d(64, 512, kernel_size=(1, 1), stride=(1, 1))
          )
          (reweight_v): Mlp(
            (act): PReLU(num_parameters=1)
            (drop): Dropout(p=0.0, inplace=False)
            (fc1): Conv2d(256, 64, kernel_size=(1, 1), stride=(1, 1))
            (fc2): Conv2d(64, 512, kernel_size=(1, 1), stride=(1, 1))
          )
          (reweight_w): Mlp(
            (act): PReLU(num_parameters=1)
            (drop): Dropout(p=0.0, inplace=False)
            (fc1): Conv2d(256, 64, kernel_size=(1, 1), stride=(1, 1))
            (fc2): Conv2d(64, 512, kernel_size=(1, 1), stride=(1, 1))
          )
          (proj): Conv2d(256, 256, kernel_size=(1, 1), stride=(1, 1))
          (proj_drop): Dropout(p=0.0, inplace=False)
        )
        (drop_path): Identity()
        (norm2): LayerNorm()
        (mlp): Mlp(
          (act): PReLU(num_parameters=1)
          (drop): Dropout(p=0.0, inplace=False)
          (fc1): Conv2d(256, 512, kernel_size=(1, 1), stride=(1, 1))
          (fc2): Conv2d(512, 256, kernel_size=(1, 1), stride=(1, 1))
        )
      )
      (2): WTB(
        (wfb): WFB(
          (norm): LayerNorm()
          (fcs): ModuleList(
            (0-8): 9 x Conv2d(256, 256, kernel_size=(1, 1), stride=(1, 1), bias=False)
          )
          (f3): Conv2d(256, 256, kernel_size=(3, 3), stride=(1, 1), padding=(1, 1), groups=64, bias=False)
          (f5): Conv2d(256, 256, kernel_size=(5, 5), stride=(1, 1), padding=(2, 2), groups=128, bias=False)
          (f7): Conv2d(256, 256, kernel_size=(7, 7), stride=(1, 1), padding=(3, 3), groups=256, bias=False)
          (reweight_u): Mlp(
            (act): PReLU(num_parameters=1)
            (drop): Dropout(p=0.0, inplace=False)
            (fc1): Conv2d(256, 64, kernel_size=(1, 1), stride=(1, 1))
            (fc2): Conv2d(64, 512, kernel_size=(1, 1), stride=(1, 1))
          )
          (reweight_v): Mlp(
            (act): PReLU(num_parameters=1)
            (drop): Dropout(p=0.0, inplace=False)
            (fc1): Conv2d(256, 64, kernel_size=(1, 1), stride=(1, 1))
            (fc2): Conv2d(64, 512, kernel_size=(1, 1), stride=(1, 1))
          )
          (reweight_w): Mlp(
            (act): PReLU(num_parameters=1)
            (drop): Dropout(p=0.0, inplace=False)
            (fc1): Conv2d(256, 64, kernel_size=(1, 1), stride=(1, 1))
            (fc2): Conv2d(64, 512, kernel_size=(1, 1), stride=(1, 1))
          )
          (proj): Conv2d(256, 256, kernel_size=(1, 1), stride=(1, 1))
          (proj_drop): Dropout(p=0.0, inplace=False)
        )
        (drop_path): Identity()
        (norm2): LayerNorm()
        (mlp): Mlp(
          (act): PReLU(num_parameters=1)
          (drop): Dropout(p=0.0, inplace=False)
          (fc1): Conv2d(256, 512, kernel_size=(1, 1), stride=(1, 1))
          (fc2): Conv2d(512, 256, kernel_size=(1, 1), stride=(1, 1))
        )
      )
      (3): WTB(
        (wfb): WFB(
          (norm): LayerNorm()
          (fcs): ModuleList(
            (0-8): 9 x Conv2d(256, 256, kernel_size=(1, 1), stride=(1, 1), bias=False)
          )
          (f3): Conv2d(256, 256, kernel_size=(3, 3), stride=(1, 1), padding=(1, 1), groups=64, bias=False)
          (f5): Conv2d(256, 256, kernel_size=(5, 5), stride=(1, 1), padding=(2, 2), groups=128, bias=False)
          (f7): Conv2d(256, 256, kernel_size=(7, 7), stride=(1, 1), padding=(3, 3), groups=256, bias=False)
          (reweight_u): Mlp(
            (act): PReLU(num_parameters=1)
            (drop): Dropout(p=0.0, inplace=False)
            (fc1): Conv2d(256, 64, kernel_size=(1, 1), stride=(1, 1))
            (fc2): Conv2d(64, 512, kernel_size=(1, 1), stride=(1, 1))
          )
          (reweight_v): Mlp(
            (act): PReLU(num_parameters=1)
            (drop): Dropout(p=0.0, inplace=False)
            (fc1): Conv2d(256, 64, kernel_size=(1, 1), stride=(1, 1))
            (fc2): Conv2d(64, 512, kernel_size=(1, 1), stride=(1, 1))
          )
          (reweight_w): Mlp(
            (act): PReLU(num_parameters=1)
            (drop): Dropout(p=0.0, inplace=False)
            (fc1): Conv2d(256, 64, kernel_size=(1, 1), stride=(1, 1))
            (fc2): Conv2d(64, 512, kernel_size=(1, 1), stride=(1, 1))
          )
          (proj): Conv2d(256, 256, kernel_size=(1, 1), stride=(1, 1))
          (proj_drop): Dropout(p=0.0, inplace=False)
        )
        (drop_path): Identity()
        (norm2): LayerNorm()
        (mlp): Mlp(
          (act): PReLU(num_parameters=1)
          (drop): Dropout(p=0.0, inplace=False)
          (fc1): Conv2d(256, 512, kernel_size=(1, 1), stride=(1, 1))
          (fc2): Conv2d(512, 256, kernel_size=(1, 1), stride=(1, 1))
        )
      )
    )
    (5): Conv2d(256, 256, kernel_size=(3, 3), stride=(1, 1), padding=(1, 1), bias=False)
  )
  (decoder): ModuleList(
    (0): Sequential(
      (0): WTB(
        (wfb): WFB(
          (norm): LayerNorm()
          (fcs): ModuleList(
            (0-8): 9 x Conv2d(256, 256, kernel_size=(1, 1), stride=(1, 1), bias=False)
          )
          (f3): Conv2d(256, 256, kernel_size=(3, 3), stride=(1, 1), padding=(1, 1), groups=64, bias=False)
          (f5): Conv2d(256, 256, kernel_size=(5, 5), stride=(1, 1), padding=(2, 2), groups=128, bias=False)
          (f7): Conv2d(256, 256, kernel_size=(7, 7), stride=(1, 1), padding=(3, 3), groups=256, bias=False)
          (reweight_u): Mlp(
            (act): PReLU(num_parameters=1)
            (drop): Dropout(p=0.0, inplace=False)
            (fc1): Conv2d(256, 64, kernel_size=(1, 1), stride=(1, 1))
            (fc2): Conv2d(64, 512, kernel_size=(1, 1), stride=(1, 1))
          )
          (reweight_v): Mlp(
            (act): PReLU(num_parameters=1)
            (drop): Dropout(p=0.0, inplace=False)
            (fc1): Conv2d(256, 64, kernel_size=(1, 1), stride=(1, 1))
            (fc2): Conv2d(64, 512, kernel_size=(1, 1), stride=(1, 1))
          )
          (reweight_w): Mlp(
            (act): PReLU(num_parameters=1)
            (drop): Dropout(p=0.0, inplace=False)
            (fc1): Conv2d(256, 64, kernel_size=(1, 1), stride=(1, 1))
            (fc2): Conv2d(64, 512, kernel_size=(1, 1), stride=(1, 1))
          )
          (proj): Conv2d(256, 256, kernel_size=(1, 1), stride=(1, 1))
          (proj_drop): Dropout(p=0.0, inplace=False)
        )
        (drop_path): Identity()
        (norm2): LayerNorm()
        (mlp): Mlp(
          (act): PReLU(num_parameters=1)
          (drop): Dropout(p=0.0, inplace=False)
          (fc1): Conv2d(256, 512, kernel_size=(1, 1), stride=(1, 1))
          (fc2): Conv2d(512, 256, kernel_size=(1, 1), stride=(1, 1))
        )
      )
      (1): WTB(
        (wfb): WFB(
          (norm): LayerNorm()
          (fcs): ModuleList(
            (0-8): 9 x Conv2d(256, 256, kernel_size=(1, 1), stride=(1, 1), bias=False)
          )
          (f3): Conv2d(256, 256, kernel_size=(3, 3), stride=(1, 1), padding=(1, 1), groups=64, bias=False)
          (f5): Conv2d(256, 256, kernel_size=(5, 5), stride=(1, 1), padding=(2, 2), groups=128, bias=False)
          (f7): Conv2d(256, 256, kernel_size=(7, 7), stride=(1, 1), padding=(3, 3), groups=256, bias=False)
          (reweight_u): Mlp(
            (act): PReLU(num_parameters=1)
            (drop): Dropout(p=0.0, inplace=False)
            (fc1): Conv2d(256, 64, kernel_size=(1, 1), stride=(1, 1))
            (fc2): Conv2d(64, 512, kernel_size=(1, 1), stride=(1, 1))
          )
          (reweight_v): Mlp(
            (act): PReLU(num_parameters=1)
            (drop): Dropout(p=0.0, inplace=False)
            (fc1): Conv2d(256, 64, kernel_size=(1, 1), stride=(1, 1))
            (fc2): Conv2d(64, 512, kernel_size=(1, 1), stride=(1, 1))
          )
          (reweight_w): Mlp(
            (act): PReLU(num_parameters=1)
            (drop): Dropout(p=0.0, inplace=False)
            (fc1): Conv2d(256, 64, kernel_size=(1, 1), stride=(1, 1))
            (fc2): Conv2d(64, 512, kernel_size=(1, 1), stride=(1, 1))
          )
          (proj): Conv2d(256, 256, kernel_size=(1, 1), stride=(1, 1))
          (proj_drop): Dropout(p=0.0, inplace=False)
        )
        (drop_path): Identity()
        (norm2): LayerNorm()
        (mlp): Mlp(
          (act): PReLU(num_parameters=1)
          (drop): Dropout(p=0.0, inplace=False)
          (fc1): Conv2d(256, 512, kernel_size=(1, 1), stride=(1, 1))
          (fc2): Conv2d(512, 256, kernel_size=(1, 1), stride=(1, 1))
        )
      )
      (2): WTB(
        (wfb): WFB(
          (norm): LayerNorm()
          (fcs): ModuleList(
            (0-8): 9 x Conv2d(256, 256, kernel_size=(1, 1), stride=(1, 1), bias=False)
          )
          (f3): Conv2d(256, 256, kernel_size=(3, 3), stride=(1, 1), padding=(1, 1), groups=64, bias=False)
          (f5): Conv2d(256, 256, kernel_size=(5, 5), stride=(1, 1), padding=(2, 2), groups=128, bias=False)
          (f7): Conv2d(256, 256, kernel_size=(7, 7), stride=(1, 1), padding=(3, 3), groups=256, bias=False)
          (reweight_u): Mlp(
            (act): PReLU(num_parameters=1)
            (drop): Dropout(p=0.0, inplace=False)
            (fc1): Conv2d(256, 64, kernel_size=(1, 1), stride=(1, 1))
            (fc2): Conv2d(64, 512, kernel_size=(1, 1), stride=(1, 1))
          )
          (reweight_v): Mlp(
            (act): PReLU(num_parameters=1)
            (drop): Dropout(p=0.0, inplace=False)
            (fc1): Conv2d(256, 64, kernel_size=(1, 1), stride=(1, 1))
            (fc2): Conv2d(64, 512, kernel_size=(1, 1), stride=(1, 1))
          )
          (reweight_w): Mlp(
            (act): PReLU(num_parameters=1)
            (drop): Dropout(p=0.0, inplace=False)
            (fc1): Conv2d(256, 64, kernel_size=(1, 1), stride=(1, 1))
            (fc2): Conv2d(64, 512, kernel_size=(1, 1), stride=(1, 1))
          )
          (proj): Conv2d(256, 256, kernel_size=(1, 1), stride=(1, 1))
          (proj_drop): Dropout(p=0.0, inplace=False)
        )
        (drop_path): Identity()
        (norm2): LayerNorm()
        (mlp): Mlp(
          (act): PReLU(num_parameters=1)
          (drop): Dropout(p=0.0, inplace=False)
          (fc1): Conv2d(256, 512, kernel_size=(1, 1), stride=(1, 1))
          (fc2): Conv2d(512, 256, kernel_size=(1, 1), stride=(1, 1))
        )
      )
      (3): WTB(
        (wfb): WFB(
          (norm): LayerNorm()
          (fcs): ModuleList(
            (0-8): 9 x Conv2d(256, 256, kernel_size=(1, 1), stride=(1, 1), bias=False)
          )
          (f3): Conv2d(256, 256, kernel_size=(3, 3), stride=(1, 1), padding=(1, 1), groups=64, bias=False)
          (f5): Conv2d(256, 256, kernel_size=(5, 5), stride=(1, 1), padding=(2, 2), groups=128, bias=False)
          (f7): Conv2d(256, 256, kernel_size=(7, 7), stride=(1, 1), padding=(3, 3), groups=256, bias=False)
          (reweight_u): Mlp(
            (act): PReLU(num_parameters=1)
            (drop): Dropout(p=0.0, inplace=False)
            (fc1): Conv2d(256, 64, kernel_size=(1, 1), stride=(1, 1))
            (fc2): Conv2d(64, 512, kernel_size=(1, 1), stride=(1, 1))
          )
          (reweight_v): Mlp(
            (act): PReLU(num_parameters=1)
            (drop): Dropout(p=0.0, inplace=False)
            (fc1): Conv2d(256, 64, kernel_size=(1, 1), stride=(1, 1))
            (fc2): Conv2d(64, 512, kernel_size=(1, 1), stride=(1, 1))
          )
          (reweight_w): Mlp(
            (act): PReLU(num_parameters=1)
            (drop): Dropout(p=0.0, inplace=False)
            (fc1): Conv2d(256, 64, kernel_size=(1, 1), stride=(1, 1))
            (fc2): Conv2d(64, 512, kernel_size=(1, 1), stride=(1, 1))
          )
          (proj): Conv2d(256, 256, kernel_size=(1, 1), stride=(1, 1))
          (proj_drop): Dropout(p=0.0, inplace=False)
        )
        (drop_path): Identity()
        (norm2): LayerNorm()
        (mlp): Mlp(
          (act): PReLU(num_parameters=1)
          (drop): Dropout(p=0.0, inplace=False)
          (fc1): Conv2d(256, 512, kernel_size=(1, 1), stride=(1, 1))
          (fc2): Conv2d(512, 256, kernel_size=(1, 1), stride=(1, 1))
        )
      )
    )
    (1): Upsample(
      (norm): LayerNorm()
      (up): Sequential(
        (0): Conv2d(256, 192, kernel_size=(3, 3), stride=(1, 1), padding=(1, 1), bias=False)
        (1): UpsamplingBilinear2d(scale_factor=2.0, mode='bilinear')
      )
    )
    (2): Sequential(
      (0): WTB(
        (wfb): WFB(
          (norm): LayerNorm()
          (fcs): ModuleList(
            (0-8): 9 x Conv2d(192, 192, kernel_size=(1, 1), stride=(1, 1), bias=False)
          )
          (f3): Conv2d(192, 192, kernel_size=(3, 3), stride=(1, 1), padding=(1, 1), groups=48, bias=False)
          (f5): Conv2d(192, 192, kernel_size=(5, 5), stride=(1, 1), padding=(2, 2), groups=96, bias=False)
          (f7): Conv2d(192, 192, kernel_size=(7, 7), stride=(1, 1), padding=(3, 3), groups=192, bias=False)
          (reweight_u): Mlp(
            (act): PReLU(num_parameters=1)
            (drop): Dropout(p=0.0, inplace=False)
            (fc1): Conv2d(192, 48, kernel_size=(1, 1), stride=(1, 1))
            (fc2): Conv2d(48, 384, kernel_size=(1, 1), stride=(1, 1))
          )
          (reweight_v): Mlp(
            (act): PReLU(num_parameters=1)
            (drop): Dropout(p=0.0, inplace=False)
            (fc1): Conv2d(192, 48, kernel_size=(1, 1), stride=(1, 1))
            (fc2): Conv2d(48, 384, kernel_size=(1, 1), stride=(1, 1))
          )
          (reweight_w): Mlp(
            (act): PReLU(num_parameters=1)
            (drop): Dropout(p=0.0, inplace=False)
            (fc1): Conv2d(192, 48, kernel_size=(1, 1), stride=(1, 1))
            (fc2): Conv2d(48, 384, kernel_size=(1, 1), stride=(1, 1))
          )
          (proj): Conv2d(192, 192, kernel_size=(1, 1), stride=(1, 1))
          (proj_drop): Dropout(p=0.0, inplace=False)
        )
        (drop_path): Identity()
        (norm2): LayerNorm()
        (mlp): Mlp(
          (act): PReLU(num_parameters=1)
          (drop): Dropout(p=0.0, inplace=False)
          (fc1): Conv2d(192, 384, kernel_size=(1, 1), stride=(1, 1))
          (fc2): Conv2d(384, 192, kernel_size=(1, 1), stride=(1, 1))
        )
      )
      (1): WTB(
        (wfb): WFB(
          (norm): LayerNorm()
          (fcs): ModuleList(
            (0-8): 9 x Conv2d(192, 192, kernel_size=(1, 1), stride=(1, 1), bias=False)
          )
          (f3): Conv2d(192, 192, kernel_size=(3, 3), stride=(1, 1), padding=(1, 1), groups=48, bias=False)
          (f5): Conv2d(192, 192, kernel_size=(5, 5), stride=(1, 1), padding=(2, 2), groups=96, bias=False)
          (f7): Conv2d(192, 192, kernel_size=(7, 7), stride=(1, 1), padding=(3, 3), groups=192, bias=False)
          (reweight_u): Mlp(
            (act): PReLU(num_parameters=1)
            (drop): Dropout(p=0.0, inplace=False)
            (fc1): Conv2d(192, 48, kernel_size=(1, 1), stride=(1, 1))
            (fc2): Conv2d(48, 384, kernel_size=(1, 1), stride=(1, 1))
          )
          (reweight_v): Mlp(
            (act): PReLU(num_parameters=1)
            (drop): Dropout(p=0.0, inplace=False)
            (fc1): Conv2d(192, 48, kernel_size=(1, 1), stride=(1, 1))
            (fc2): Conv2d(48, 384, kernel_size=(1, 1), stride=(1, 1))
          )
          (reweight_w): Mlp(
            (act): PReLU(num_parameters=1)
            (drop): Dropout(p=0.0, inplace=False)
            (fc1): Conv2d(192, 48, kernel_size=(1, 1), stride=(1, 1))
            (fc2): Conv2d(48, 384, kernel_size=(1, 1), stride=(1, 1))
          )
          (proj): Conv2d(192, 192, kernel_size=(1, 1), stride=(1, 1))
          (proj_drop): Dropout(p=0.0, inplace=False)
        )
        (drop_path): Identity()
        (norm2): LayerNorm()
        (mlp): Mlp(
          (act): PReLU(num_parameters=1)
          (drop): Dropout(p=0.0, inplace=False)
          (fc1): Conv2d(192, 384, kernel_size=(1, 1), stride=(1, 1))
          (fc2): Conv2d(384, 192, kernel_size=(1, 1), stride=(1, 1))
        )
      )
    )
    (3): Upsample(
      (norm): LayerNorm()
      (up): Sequential(
        (0): Conv2d(192, 128, kernel_size=(3, 3), stride=(1, 1), padding=(1, 1), bias=False)
        (1): UpsamplingBilinear2d(scale_factor=2.0, mode='bilinear')
      )
    )
    (4): Sequential(
      (0): WTB(
        (wfb): WFB(
          (norm): LayerNorm()
          (fcs): ModuleList(
            (0-8): 9 x Conv2d(128, 128, kernel_size=(1, 1), stride=(1, 1), bias=False)
          )
          (f3): Conv2d(128, 128, kernel_size=(3, 3), stride=(1, 1), padding=(1, 1), groups=32, bias=False)
          (f5): Conv2d(128, 128, kernel_size=(5, 5), stride=(1, 1), padding=(2, 2), groups=64, bias=False)
          (f7): Conv2d(128, 128, kernel_size=(7, 7), stride=(1, 1), padding=(3, 3), groups=128, bias=False)
          (reweight_u): Mlp(
            (act): PReLU(num_parameters=1)
            (drop): Dropout(p=0.0, inplace=False)
            (fc1): Conv2d(128, 32, kernel_size=(1, 1), stride=(1, 1))
            (fc2): Conv2d(32, 256, kernel_size=(1, 1), stride=(1, 1))
          )
          (reweight_v): Mlp(
            (act): PReLU(num_parameters=1)
            (drop): Dropout(p=0.0, inplace=False)
            (fc1): Conv2d(128, 32, kernel_size=(1, 1), stride=(1, 1))
            (fc2): Conv2d(32, 256, kernel_size=(1, 1), stride=(1, 1))
          )
          (reweight_w): Mlp(
            (act): PReLU(num_parameters=1)
            (drop): Dropout(p=0.0, inplace=False)
            (fc1): Conv2d(128, 32, kernel_size=(1, 1), stride=(1, 1))
            (fc2): Conv2d(32, 256, kernel_size=(1, 1), stride=(1, 1))
          )
          (proj): Conv2d(128, 128, kernel_size=(1, 1), stride=(1, 1))
          (proj_drop): Dropout(p=0.0, inplace=False)
        )
        (drop_path): Identity()
        (norm2): LayerNorm()
        (mlp): Mlp(
          (act): PReLU(num_parameters=1)
          (drop): Dropout(p=0.0, inplace=False)
          (fc1): Conv2d(128, 256, kernel_size=(1, 1), stride=(1, 1))
          (fc2): Conv2d(256, 128, kernel_size=(1, 1), stride=(1, 1))
        )
      )
      (1): WTB(
        (wfb): WFB(
          (norm): LayerNorm()
          (fcs): ModuleList(
            (0-8): 9 x Conv2d(128, 128, kernel_size=(1, 1), stride=(1, 1), bias=False)
          )
          (f3): Conv2d(128, 128, kernel_size=(3, 3), stride=(1, 1), padding=(1, 1), groups=32, bias=False)
          (f5): Conv2d(128, 128, kernel_size=(5, 5), stride=(1, 1), padding=(2, 2), groups=64, bias=False)
          (f7): Conv2d(128, 128, kernel_size=(7, 7), stride=(1, 1), padding=(3, 3), groups=128, bias=False)
          (reweight_u): Mlp(
            (act): PReLU(num_parameters=1)
            (drop): Dropout(p=0.0, inplace=False)
            (fc1): Conv2d(128, 32, kernel_size=(1, 1), stride=(1, 1))
            (fc2): Conv2d(32, 256, kernel_size=(1, 1), stride=(1, 1))
          )
          (reweight_v): Mlp(
            (act): PReLU(num_parameters=1)
            (drop): Dropout(p=0.0, inplace=False)
            (fc1): Conv2d(128, 32, kernel_size=(1, 1), stride=(1, 1))
            (fc2): Conv2d(32, 256, kernel_size=(1, 1), stride=(1, 1))
          )
          (reweight_w): Mlp(
            (act): PReLU(num_parameters=1)
            (drop): Dropout(p=0.0, inplace=False)
            (fc1): Conv2d(128, 32, kernel_size=(1, 1), stride=(1, 1))
            (fc2): Conv2d(32, 256, kernel_size=(1, 1), stride=(1, 1))
          )
          (proj): Conv2d(128, 128, kernel_size=(1, 1), stride=(1, 1))
          (proj_drop): Dropout(p=0.0, inplace=False)
        )
        (drop_path): Identity()
        (norm2): LayerNorm()
        (mlp): Mlp(
          (act): PReLU(num_parameters=1)
          (drop): Dropout(p=0.0, inplace=False)
          (fc1): Conv2d(128, 256, kernel_size=(1, 1), stride=(1, 1))
          (fc2): Conv2d(256, 128, kernel_size=(1, 1), stride=(1, 1))
        )
      )
    )
  )
  (asff): ASFF(
    (fcs): ModuleList(
      (0-1): 2 x Sequential(
        (0): Conv2d(128, 32, kernel_size=(1, 1), stride=(1, 1), bias=False)
        (1): PReLU(num_parameters=1)
      )
    )
    (conv): Conv2d(64, 2, kernel_size=(1, 1), stride=(1, 1), bias=False)
  )
  (conv_2): Conv2d(128, 3, kernel_size=(3, 3), stride=(1, 1), padding=(1, 1), bias=False)
)
2024-08-30 20:50:22,147 INFO: Model [ImageCleanModel] is created.
2024-08-30 20:50:22,279 INFO: Start training from epoch: 0, iter: 0
2024-08-30 20:50:22,280 INFO: ==> Training details:
                    ------------------------------------------------------------------
                        Restoration mode:   WaveNet_B_LOL
…
